saved_models/nn_model.pkl (torch, 2328 bytes, 3 tensors)

fc1.weight f4 [8, 9]
000000 40 b6 9a bc 06 f0 f9 bd 3c e6 86 be 30 d7 6a be
       -0.018885732 -0.12203984 -0.2634753 -0.2293365
000010 20 b3 29 bc 80 06 27 3c 0a 95 9f be 3f b8 a1 be
       -0.010357648 0.010194421 -0.31168395 -0.3158588
000020 d1 3e 89 3e 42 36 43 3c 2f b5 0f be b5 33 19 3e
       0.26805738 0.011914792 -0.1403396 0.14961131
000030 e6 b0 a8 be 8a 99 96 3d e7 cb 8c be 6c ba 4a be
       -0.32947463 0.07353504 -0.27499315 -0.19797677
000040 d4 7e 3e be 06 fd 10 be cf cc 04 3f f6 5d 05 3f
       -0.18603069 -0.14159021 0.51875013 0.520965
000050 33 2f ca 3e ab 02 e7 3e d1 47 a6 3e 41 4b 10 3f
       0.39489135 0.45119223 0.32476667 0.5636483
000060 5b fa 9f 3e b2 c5 05 3f 4b 20 90 3e 35 46 48 3f
       0.31245694 0.52254784 0.28149638 0.7823213
000070 7b 59 23 3f 12 fe 16 3f eb 6d 14 3f fe db 76 3e
       0.6380841 0.5898143 0.5798022 0.24107358
000080 9f 2e 90 3e 4f 11 2b 3f ef d4 3d 3e e8 f7 0a 3f
       0.2816057 0.66823286 0.18538259 0.54284525
000090 75 55 48 3f a5 f7 51 3f cf ae 33 3f 58 f6 a0 3e
       0.782554 0.820185 0.7018861 0.31437945
0000a0 01 d8 46 3f ed 40 2e 3f 27 7a 49 3f f3 db e9 3e
       0.77673346 0.6806782 0.78702015 0.4567562
0000b0 5f a4 bf 3e ae 6b 0e 3f e4 c8 ca 3e 34 0f 21 3f
       0.37430093 0.55633056 0.39606392 0.62913823
0000c0 23 aa 9c 3e 12 3a 5e 3f 07 0f e1 3e 8a 1c 2a 3f
       0.30598554 0.8680736 0.43956777 0.664498
0000d0 55 ec a3 3e 36 64 95 3d ba 61 95 be b0 4b fe bd
       0.32016245 0.07294504 -0.29176122 -0.1241678
0000e0 2e 71 45 be 76 9e 35 be 1a 6f 5e 3e 9e dd 11 be
       -0.19281456 -0.1773623 0.2172207 -0.14244696
0000f0 03 62 3a be 13 1a 2d be 44 cf da 3d b8 18 51 3f
       -0.18201451 -0.16904478 0.10684064 0.8167834
000100 66 1a 1d 3f 1c 9d 2c 3f 06 19 8b 3e a8 f3 22 3f
       0.61368406 0.6742723 0.2716753 0.6365304
000110 80 d5 08 3f 7c c9 9d 3e 31 29 d3 3e f2 1c 13 3e
       0.53450775 0.30817783 0.41242364 0.1436651

fc1.bias f4 [8]
000000 f3 68 15 be b6 39 a9 bd 0b 37 3f 3f 1e 4b ed 3e
       -0.14590816 -0.082629606 0.74693364 0.46346372
000010 04 04 f0 3e 48 da 4c 3f 34 5b 93 bd 41 a4 08 3f
       0.46878064 0.8002057 -0.0719513 0.5337563

fc2.weight f4 [1, 8]
000000 a7 a6 ab 3e c3 a9 ee bc 22 0f 12 3f 47 c5 16 3f
       0.33525583 -0.029133683 0.5705434 0.5889477
000010 94 0f 2c 3f e0 5b 18 3f 76 17 08 3e 1c 77 54 3f
       0.6721127 0.5951519 0.132902 0.82994246
